Assist-app-main/assets/HandCashDetection.tflite (tflite, 761632 bytes, 107 tensors)

dense_Dense1/bias f4 [100]
0.09484164 -0.06664238 0.057400722 -0.016956905 0.021481462 -0.08351714 -0.09543607 -0.012846002
-0.0028579596 -0.006997263 -0.0036765714 -0.003088952 -0.0076571996 -0.10556502 -0.014655245 -0.042808473
-0.029167125 -0.049862456 0.061211545 -0.065121405 -0.0658596 -0.013193464 -0.010520603 -0.007537613
0.014029164 0.06944713 -0.011212187 -0.06064729 -0.15265366 -0.070110306 -0.06812745 0.034981254
-0.15479702 -0.008045062 -0.07924765 0.018598713 -0.04719996 -0.11229548 0.061868608 0.029435117
-0.010417681 -0.0006874272 -0.041834306 -0.016105916 -0.02638688 0.013677505 -0.016487963 -0.061952114
-0.020024417 -0.038284957 -0.067886524 -0.020872755 -0.06510264 -0.087725885 -0.0090094255 -0.012338183
0.10815796 -0.022180919 -0.013710345 0.011464455 -0.01062754 -0.068942554 -0.085926555 -0.0045707407
-0.14528209 0.024051983 0.0063738204 -0.026918467 -0.02188659 0.03331392 -0.08307049 -0.021497974
-0.07999033 0.030774191 -0.08523155 0.028677521 -0.061814304 -0.06569922 -0.017150765 -0.0077860085
-0.020980343 -0.08330423 -0.06353064 0.10189007 -0.17497788 -0.10234028 -0.0059319455 0.12906851
-0.02784524 -0.08875015 -0.01436155 -0.0077361492 -0.09983079 0.057284493 -0.12360963 -0.010844924
-0.057531107 -0.057369556 0.0069905086 -0.025667086
00000000: 553c c23d cd7b 88bd 051d 6b3d 35e9 8abc
00000010: e4f9 af3c 090b abbd fc73 c3bd 0a78 52bc
00000020: 9b4c 3bbb 4c49 e5bb a2f2 70bb 0470 4abb
00000030: 3fe9 fabb 7932 d8bd 8d1c 70bc f057 2fbd
00000040: e5ef eebc 933c 4cbd f5b8 7a3d 5f5e 85bd
00000050: 66e1 86bd 6629 58bc 9b5e 2cbc 15fe f6bb
00000060: 94da 653c 4c3a 8e3d 52b3 37bc 4b69 78bd
00000070: 3e51 1cbe fe95 8fbd 6886 8bbd 8148 0f3d
00000080: 1c83 1ebe 70cf 03bc 984c a2bd 545c 983c
00000090: bf54 41bd 2cfb e5bd f069 7d3d ea21 f13c
000000a0: ecae 2abc 7534 34ba 735a 2bbd 8ef0 83bc
000000b0: 4c29 d8bc 9d17 603c c411 87bc 80c1 7dbd
000000c0: 3f0a a4bc b0d0 1cbd 1708 8bbd 57fd aabc
000000d0: 8854 85bd a1a9 b3bd 459c 13bc 1726 4abc
000000e0: ec81 dd3d c2b4 b5bc 5ba1 60bc 69d5 3b3c
000000f0: 221f 2ebc c131 8dbd 43fa afbd 27c6 95bb
00000100: d4c4 14be aa08 c53c 7bdb d03b 1e84 dcbc
00000110: 824b b3bc 2d74 083d dc20 aabd 851c b0bc
00000120: f8d1 a3bd 281a fc3c e18d aebd 1fed ea3c
00000130: ff30 7dbd 508d 86bd c37f 8cbc c621 ffbb
00000140: f8de abbc 689b aabd 5a1c 82bd beab d03d
00000150: 672d 33be c897 d1bd c460 c2bb 892a 043e
00000160: b31b e4bc a3c2 b5bd b54c 6bbc 867f fdbb
00000170: 1674 ccbd 25a3 6a3d 0c27 fdbd e8ae 31bc
00000180: bda5 6bbd 57fc 6abd a310 e53b c843 d2bc

sequential_4/sequential_1/model1/bn_Conv1/FusedBatchNormV3;sequential_4/sequential_1/model1/bn_Conv1/FusedBatchNormV3 f4 [16]
3.0750906 -3.626069 2.651715 -2.1149929 3.0828476 -1.5316448 2.3504837 0.1541736
3.0028925 7.3783283 2.854914 -1.5844721 1.9963534 -0.3597468 2.9747493 -4.8291707
00000000: 49ce 4440 8411 68c0 b3b5 2940 0b5c 07c0
00000010: 604d 4540 f00c c4bf 536e 1640 afdf 1d3e
00000020: 642f 4040 441b ec40 e9b6 3640 fbcf cabf
00000030: 8288 ff3f bc30 b8be 4b62 3e40 9188 9ac0

sequential_4/sequential_1/model1/expanded_conv_depthwise_BN/FusedBatchNormV3;sequential_4/sequential_1/model1/expanded_conv_depthwise_BN/FusedBatchNormV3 f4 [16]
1.180719 -0.2597408 2.3067353 -0.10205032 4.0017276 1.0221555 2.7424316 -0.89157677
1.8910455 0.51514316 2.7150104 0.81469125 1.1490259 -0.40153658 1.6650147 -0.12564796
00000000: cd21 973f bffc 84be 8da1 1340 c2ff d0bd
00000010: 270e 8040 fed5 823f 0084 2f40 603e 64bf
00000020: c70d f23f 6ce0 033f bbc2 2d40 9b8f 503f
00000030: 4813 933f 3496 cdbe 341f d53f dca9 00be

sequential_4/sequential_1/model1/block_1_expand_BN/FusedBatchNormV3;sequential_4/sequential_1/model1/block_1_expand_BN/FusedBatchNormV3 f4 [48]
0.20650154 2.0329132 0.031290486 0.0016632364 2.2541676 0.16077171 1.9538497 4.026953
-0.2706669 -0.0030973726 2.975182 0.36971655 -0.0772785 -0.28231844 0.19261377 3.4112895
0.6132206 2.6848245 3.9466295 1.1554288 2.1572685 -0.032889236 2.9622257 0.11002885
4.0497036 3.2712815 1.6395673 1.377158 3.1412294 3.5130796 2.6944978 -0.010844211
2.1276674 0.006277306 0.024431482 -0.013750045 -0.029755242 4.064551 4.4618216 1.6605709
0.11721338 2.4663422 4.4879274 1.1502602 2.2195315 0.879969 -0.12402204 3.022101
00000000: 2475 533e 401b 0240 742a 003d f400 da3a
00000010: 4844 1040 57a1 243e bf17 fa3f cddc 8040
00000020: da94 8abe 4afd 4abb 6269 3e40 7d4b bd3e
00000030: 3144 9ebd 0b8c 90be 8b3c 453e 9152 5a40
00000040: 06fc 1c3f 2ad4 2b40 9495 7c40 17e5 933f
00000050: b010 0a40 ddb6 06bd 1b95 3d40 ce56 e13d
00000060: 2c97 8140 ad5c 5140 57dd d13f b746 b03f
00000070: e709 4940 4cd6 6040 a772 2c40 ebab 31bc
00000080: b42b 0840 dcb1 cd3b 8824 c83c de47 61bc
00000090: 44c1 f3bc cd10 8240 3ec7 8e40 968d d43f
000000a0: 920d f03d 8dd8 1d40 1a9d 8f40 ba3b 933f
000000b0: ce0c 0e40 a645 613f 44ff fdbd 1a6a 4140

sequential_4/sequential_1/model1/block_1_depthwise_BN/FusedBatchNormV3;sequential_4/sequential_1/model1/block_1_depthwise_BN/FusedBatchNormV3 f4 [48]
1.17116 -2.6357203 0.7899551 0.047237933 -5.9154086 0.98798764 0.8512016 -18.229946
1.2345929 2.6759353 -2.9505777 0.9727824 -0.008550584 0.8351382 0.59887064 1.497632
0.76869094 0.7882715 -15.59141 0.1516645 -3.2766547 1.1345444 1.5651939 1.1849139
3.8587143 1.9748839 0.052239157 -3.2555842 0.757157 0.024095744 -0.17522103 0.2550038
6.113058 0.0555591 0.52064383 0.32872143 0.3400681 3.49194 -0.07971998 6.5886955
0.9176805 0.9577906 -0.07569373 3.3225267 0.010783093 1.5286496 1.0709113 1.6921393
00000000: 92e8 953f a4af 28c0 7f3a 4a3f 907c 413d
00000010: 074b bdc0 c2ec 7c3f 59e8 593f eed6 91c1
00000020: 2407 9e3f 8642 2b40 44d6 3cc0 4408 793f
00000030: c017 0cbc 9ecb 553f 964f 193f 68b2 bf3f
00000040: eec8 443f 29cc 493f 6a76 79c1 f04d 1b3e
00000050: b6b4 51c0 c038 913f 4658 c83f 42ab 973f
00000060: 2df5 7640 ffc8 fc3f baf8 553d 7e5b 50c0
00000070: 0bd5 413f 7064 c53c 246d 33be dc8f 823e
00000080: 2c9e c340 f091 633d ea48 053f 2d4e a83e
00000090: 681d ae3e f27b 5f40 3b44 a3bd 98d6 d240
000000a0: 1ced 6a3f c431 753f 5005 9bbd 47a4 5440
000000b0: 92ab 303c caaa c33f 9f13 893f 0598 d83f

sequential_4/sequential_1/model1/block_2_expand_BN/FusedBatchNormV3;sequential_4/sequential_1/model1/block_2_expand_BN/FusedBatchNormV3 f4 [48]
1.4477919 -0.87147933 3.474914 2.1128705 -0.6196169 5.726174 3.0917118 0.47903958
1.8469623 0.21876018 0.34645778 0.2011228 2.5049365 -1.8225048 -1.1328087 2.4728336
2.2040637 1.524612 1.8973572 0.84447914 4.131196 2.7760756 -0.6708151 -1.3127096
2.8965094 -0.838987 0.5160828 2.7687228 1.8971909 2.127439 3.0103283 0.20153539
2.096485 1.1672788 1.673997 1.4362428 0.8923004 2.2015102 2.690954 0.029095955
-0.9659033 1.6940485 2.0694375 2.2008822 1.3446043 -0.5360102 -1.4805349 0.021519521
00000000: 3f51 b93f 4519 5fbf fe64 5e40 4539 0740
00000010: 379f 1ebf d13c b740 9bde 4540 ad44 f53e
00000020: 4369 ec3f ab02 603e ea62 b13e 23f3 4d3e
00000030: e150 2040 d647 e9bf e0ff 90bf e842 1e40
00000040: 610f 0d40 7c26 c33f 9adc f23f c92f 583f
00000050: c232 8440 39ab 3140 8aba 2bbf de06 a8bf
00000060: 6960 3940 dac7 56bf 011e 043f c132 3140
00000070: 27d7 f23f f627 0840 38a9 4040 4b5f 4e3e
00000080: cf2c 0640 6469 953f 8945 d63f ced6 b73f
00000090: cd6d 643f 8be5 0c40 9738 2c40 a45a ee3c
000000a0: 7045 77bf 95d6 d83f aa71 0440 41db 0c40
000000b0: fe1b ac3f f737 09bf 2b82 bdbf b549 b03c

sequential_4/sequential_1/model1/block_2_depthwise_BN/FusedBatchNormV3;sequential_4/sequential_1/model1/block_2_depthwise_BN/FusedBatchNormV3 f4 [48]
-0.23679876 5.5699453 7.9569883 0.18965566 3.2399178 18.559734 -0.18462479 -0.21636072
-2.4831138 2.5290298 1.224175 1.1602838 0.12846656 1.2216879 0.6466941 0.97604346
-0.15455434 1.1423762 0.8184964 0.00019043684 4.025153 5.205139 0.6375316 1.6668406
0.56956697 2.1522365 -0.6051855 5.125435 3.1195862 1.578789 -0.07411753 0.14123648
0.07529122 -0.0027239919 4.627308 0.6320883 3.3735652 -0.6143476 2.9125602 5.6127453
0.0005319845 -0.003931138 0.047020853 0.31441867 2.4652972 0.123467565 0.9577975 2.978144
00000000: 607b 72be fe3c b240 a69f fe40 1835 423e
00000010: d05a 4f40 567a 9441 480e 3dbe aa8d 5dbe
00000020: 56eb 1ec0 a0db 2140 c4b1 9c3f 2e84 943f
00000030: bd8c 033e 4560 9c3f bf8d 253f fcdd 793f
00000040: 7e43 1ebe 6239 923f fb88 513f 00b0 4739
00000050: 0ece 8040 8090 a640 4535 233f 085b d53f
00000060: 24cf 113f 3ebe 0940 70ed 1abf 9003 a440
00000070: 4da7 4740 c215 ca3f eeca 97bd 4ca0 103e
00000080: 4832 9a3d 0085 32bb e812 9440 8ad0 213f
00000090: 7ee8 5740 e245 1dbf 6367 3a40 9c9b b340
000000a0: e074 0b3a c7d0 80bb f098 403d 7cfb a03e
000000b0: 6ec7 1d40 90dc fc3d 3832 753f e999 3e40

sequential_4/sequential_1/model1/block_3_expand_BN/FusedBatchNormV3;sequential_4/sequential_1/model1/block_3_expand_BN/FusedBatchNormV3 f4 [48]
0.0018783573 0.13934404 0.95415956 0.2517633 0.33311588 0.7647926 -0.79556257 -0.3287083
-0.857158 -0.53237665 0.75287235 0.008290484 0.13187148 3.5523262 3.1243553 -0.22318059
5.0364504 1.3965334 -0.52295625 3.9975078 -0.22526303 0.24237923 0.14841555 -0.22186151
-0.11335249 1.5285327 1.6387266 -1.4633 -0.23424259 3.0626035 2.5943801 5.945391
-0.12341866 0.19566192 0.1677711 3.0899642 4.595294 0.035555802 1.9199821 1.7585884
-0.18540828 1.4053055 2.1705098 2.534342 1.1196611 0.39087522 -0.83939165 0.25939542
00000000: 3633 f63a 34b0 0e3e cd43 743f 1fe7 803e
00000010: 2a8e aa3e 73c9 433f fda9 4bbf 744c a8be
00000020: b56e 5bbf d649 08bf 3ebc 403f cfd4 073c
00000030: 5109 073e 5059 6340 70f5 4740 7489 64be
00000040: 9a2a a140 9bc1 b23f 76e0 05bf 2bd7 7f40
00000050: 5aab 66be 4332 783e 3ffa 173e aa2f 63be
00000060: 5a25 e8bd f6a6 c33f cbc1 d13f 6a4d bbbf
00000070: 4add 6fbe b201 4440 530a 2640 a540 be40
00000080: ecc2 fcbd 995b 483e 30cc 2b3e f9c1 4540
00000090: a60c 9340 f6a2 113d f9c1 f53f 6d19 e13f
000000a0: abdb 3dbe 0de1 b33f a2e9 0a40 a932 2240
000000b0: 0e51 8f3f cc20 c83e 5fe2 56bf 7acf 843e

sequential_4/sequential_1/model1/block_3_depthwise_BN/FusedBatchNormV3;sequential_4/sequential_1/model1/block_3_depthwise_BN/FusedBatchNormV3 f4 [48]
0.10128772 3.3551004 1.5086572 0.12421262 5.905094 2.143919 0.082297266 1.1419108
0.65140474 1.1195722 -0.108919196 0.07056934 0.118726134 1.5770806 -0.98491466 1.2338454
3.888105 -0.08593558 0.04284799 -0.71899205 0.11086017 0.24240077 -0.0033278465 0.7780372
1.1797059 0.00014027208 0.22027148 0.017135441 1.8734009 0.12677674 -0.2935387 -2.8233304
0.28352582 1.8152235 0.07659173 0.119951114 6.2693014 0.013396978 -0.612789 -2.0200572
-0.09921044 0.37596285 0.08364144 -0.15600236 -0.07909775 1.4042159 0.03035593 0.002886355
00000000: f06f cf3d f7b9 5640 ae1b c13f 3063 fe3d
00000010: 88f6 bc40 f835 0940 788b a83d 222a 923f
00000020: 76c2 263f 244e 8f3f 0711 dfbd a886 903d
00000030: b026 f33d c7dd c93f 5e23 7cbf a5ee 9d3f
00000040: b6d6 7840 fefe afbd 6081 2f3d dd0f 38bf
00000050: a80a e33d e837 783e 0018 5abb 722d 473f
00000060: 9a00 973f 0016 1339 d98e 613e a05f 8c3c
00000070: 9acb ef3f c3d1 013e b44a 96be 72b1 34c0
00000080: 4c2a 913e 3e59 e83f 20dc 9c3d eea8 f53d
00000090: 1e9e c840 007f 5b3c bddf 1cbf 9e48 01c0
000000a0: d82e cbbd 347e c03e 344c ab3d 15bf 1fbe
000000b0: 00fe a1bd 59bd b33f 00ad f83c 0029 3d3b

sequential_4/sequential_1/model1/block_4_expand_BN/FusedBatchNormV3;sequential_4/sequential_1/model1/block_4_expand_BN/FusedBatchNormV3 f4 [96]
-0.8460896 1.5069182 3.787806 1.3749042 1.2822105 2.0580223 3.5041828 2.3336205
1.5141201 -0.10395155 0.48101783 0.7676031 2.3888934 3.598682 2.1310878 2.5418887
1.728701 1.2478933 2.010982 1.2904288 0.44602397 2.2243624 1.0120025 -0.12431677
-1.1639057 1.7906146 -0.2003415 2.3325868 1.0471123 -0.3732875 1.3004198 1.0597767
1.988544 1.6360449 1.6781254 2.6973386 1.4689434 1.5432587 1.0300273 0.08639578
1.9569811 2.8346574 1.3589573 0.85893166 -0.57408637 2.0086396 -0.7177277 1.7288321
2.92381 -2.3475845 0.6530011 -0.38378263 2.23833 1.7067751 1.3875957 2.6085145
1.161785 2.1016948 1.6708483 0.7469405 1.4875846 1.3539605 1.0248309 1.3803333
0.4613751 0.05489671 1.6259085 0.7395369 2.2912738 0.28683838 1.4104376 0.7482741
1.7022916 2.126298 1.0418313 0.85798264 1.530273 1.7903687 1.5431228 1.9776205
1.931544 1.5788693 3.747513 -0.24283767 0.75125706 -0.08202242 1.9501344 0.18970957
2.3872035 1.0424665 0.7197294 1.6340116 1.2750316 2.867645 1.509918 -1.6690176
00000000: 5499 58bf b2e2 c03f 6a6b 7240 dcfc af3f
00000010: 791f a43f a3b6 0340 8844 6040 0a5a 1540
00000020: b0ce c13f 8de4 d4bd f847 f63e a381 443f
00000030: a1e3 1840 ce50 6640 be63 0840 4eae 2240
00000040: 1346 dd3f f8ba 9f3f eeb3 0040 c52c a53f
00000050: 415d e43e f45b 0e40 4c89 813f ca99 febd
00000060: ddfa 94bf dc32 e53f 5226 4dbe 1a49 1540
00000070: c707 863f 8a1f bfbe 2874 a63f c3a6 873f
00000080: 9c88 fe3f eb69 d13f d0cc d63f 32a1 2c40
00000090: 5606 bc3f 8089 c53f efd7 833f 45f0 b03d
000000a0: 5b7e fa3f 076b 3540 50f2 ad3f f2e2 5b3f
000000b0: 53f7 12bf 8d8d 0040 01bd 37bf 5f4a dd3f
000000c0: b41f 3b40 d33e 16c0 152b 273f 287f c4be
000000d0: cc40 0f40 9b77 da3f bc9c b13f e7f1 2640
000000e0: 5fb5 943f 2b82 0640 5bde d53f 7e37 3f3f
000000f0: 2c69 be3f 944e ad3f a92d 833f c3ae b03f
00000100: 5b39 ec3e 5fdb 603d c51d d03f 4a52 3d3f
00000110: 3ba4 1240 7bdc 923e 3889 b43f e48e 3f3f
00000120: b1e4 d93f 4415 0840 ba5a 853f c0a4 5b3f
00000130: fcdf c33f cd2a e53f 0c85 c53f ab22 fd3f
00000140: d53c f73f 6418 ca3f 41d7 6f40 70aa 78be
00000150: 6252 403f 5ffb a7bd 019e f93f 3a43 423e
00000160: f1c7 1840 8b6f 853f 3040 383f 4b27 d13f
00000170: 3c34 a33f 7f87 3740 fe44 c13f 5ea2 d5bf

sequential_4/sequential_1/model1/block_4_depthwise_BN/FusedBatchNormV3;sequential_4/sequential_1/model1/block_4_depthwise_BN/FusedBatchNormV3 f4 [96]
1.5261748 0.48274562 -10.5896 0.016990528 1.1301992 10.944117 -0.00782086 5.211849
0.12199318 0.6404933 1.5936364 -1.2396531 -0.06659598 2.5007725 -0.25240833 4.3082843
0.47144574 1.4200646 1.5634813 -0.021545926 -0.035625845 1.2467394 1.2009711 0.31781363
2.257089 0.1733048 -1.5157838 -0.2792552 -1.0147157 -0.62546974 0.1925894 -0.016392589
0.07302705 0.32839942 -0.24613649 -2.4002209 0.15059912 -0.0009897053 -0.31420803 -0.6450774
-0.12082585 1.8352304 -1.207158 2.9875164 -1.0064428 1.5075169 1.5461214 0.10449684
2.0159712 1.0914617 2.7097988 0.5391184 2.3590024 4.4144044 -16.887207 2.1677406
-0.11764314 -0.07293826 -0.009602293 -0.033070624 3.7561564 -0.9030437 -0.3277663 -0.73642015
2.9274278 -0.013933588 -7.868121 -0.07330847 0.026829775 -0.6370346 0.0004881071 -1.4739246
-0.02316773 0.2808803 -0.24086243 0.57075197 -0.061668627 -6.5787377 0.009636688 -0.19950998
0.19157442 -0.07471618 0.30136612 0.16953221 -2.1999779 -1.1778383 -0.5637313 2.8929465
0.3051946 -0.50241363 0.07761158 0.12186331 0.0011887923 1.4788318 0.029670961 3.2271876
00000000: b259 c33f 6f2a f73e 006f 29c1 b82f 8b3c
00000010: 5eaa 903f 1a1b 2f41 1023 00bc 78c7 a640
00000020: 8fd7 f93d 5ef7 233f 47fc cb3f f4ac 9ebf
00000030: 7963 88bd a80c 2040 aa3b 81be 77dd 8940
00000040: 5661 f13e adc4 b53f 2820 c83f 1581 b0bc
00000050: 68ec 11bd 2895 9f3f 6cb9 993f 78b8 a23e
00000060: 2574 1040 d076 313e 3405 c2bf 8afa 8ebe
00000070: 34e2 81bf c91e 20bf 2836 453e c049 86bc
00000080: 358f 953d f823 a83e 340b 7cbe 389d 19c0
00000090: a836 1a3e 00b9 81ba e0df a0be cb23 25bf
000000a0: 8b73 f7bd d4e8 ea3f 2784 9abf 7833 3f40
000000b0: 1ed3 80bf 50f6 c03f 4ee7 c53f 7002 d63d
000000c0: ac05 0140 04b5 8b3f 586d 2d40 aa03 0a3f
000000d0: e5f9 1640 cd42 8d40 0019 87c1 43bc 0a40
000000e0: e3ee f0bd a860 95bd f052 1dbc 1075 07bd
000000f0: de64 7040 df2d 67bf fcd0 a7be 0886 3cbf
00000100: fa5a 3b40 b449 64bc a6c7 fbc0 c022 96bd
00000110: 1eca db3c b314 23bf a0e8 ff39 90a9 bcbf
00000120: 40ca bdbc 8bcf 8f3e a4a4 76be cd1c 123f
00000130: 3e98 7cbd 0585 d2c0 33e3 1d3c 584c 4cbe
00000140: 162c 443e cc04 99bd a94c 9a3e da99 2d3e
00000150: 70cc 0cc0 68c3 96bf b250 10bf 0926 3940
00000160: 7742 9c3e 2e9e 00bf d2f2 9e3d 7993 f93d
00000170: 40d1 9b3a 5c4a bd3f 8410 f33c 3e8a 4e40

sequential_4/sequential_1/model1/block_5_expand_BN/FusedBatchNormV3;sequential_4/sequential_1/model1/block_5_expand_BN/FusedBatchNormV3 f4 [96]
1.0441693 1.0316755 2.5587423 -0.30524403 -0.018757373 1.0996772 2.0242162 0.5044572
2.0795825 -0.4346584 0.42320433 1.7529746 1.856899 2.058496 0.8485298 1.6577859
1.1219622 0.64696205 0.48811355 1.4715745 1.3843577 0.7843482 0.7766326 0.31109124
0.55409193 -0.005583196 3.6933618 1.6472228 1.918319 2.2317832 1.0780141 -0.031028261
-0.8014281 1.4009527 0.9778747 2.8236647 1.4127744 1.0803262 -0.41548574 0.88055843
1.9472795 1.2485007 1.2363111 1.7269986 0.639271 -1.3312802 0.88302445 1.4549559
1.3671101 1.903734 1.7259341 1.3730627 0.57766825 1.5862377 0.7029185 1.3883879
1.3850949 0.19555353 -0.0018984256 1.6358583 1.2744206 2.796041 0.6479095 1.9525028
-0.96343243 -0.86100364 1.5187383 1.3154944 1.0799764 1.5933836 0.31768885 2.2102733
1.8559649 1.3656632 2.165748 3.1554477 -0.9471972 1.679912 1.9815778 2.189108
1.0524132 1.7360921 1.557604 1.7219951 1.1121318 0.6251355 0.6853092 0.46520174
-0.71518975 1.9069322 1.1470383 1.7986294 1.1085397 1.1702955 0.465482 0.25546026
00000000: 57a7 853f f10d 843f 6fc2 2340 f248 9cbe
00000010: 10a9 99bc 39c2 8c3f c28c 0140 1b24 013f
00000020: e117 0540 8c8b debe 3dae d83e 7961 e03f
00000030: deae ed3f 66be 0340 4039 593f 5432 d43f
00000040: 759c 8f3f 4e9f 253f 05ea f93e 8e5c bc3f
00000050: a232 b13f 0bcb 483f 65d1 463f 5a47 9f3e
00000060: f8d8 0d3f 3ef3 b6bb 0a60 6c40 32d8 d23f
00000070: 7a8b f53f 89d5 0e40 5efc 893f fb2e febc
00000080: 642a 4dbf 6b52 b33f ff55 7a3f ecb6 3440
00000090: cbd5 b43f 2148 8a3f 8cba d4be 476c 613f
000000a0: 7440 f93f dfce 9f3f 713f 9e3f 4a0e dd3f
000000b0: 44a7 233f 6467 aabf e40d 623f ff3b ba3f
000000c0: 77fd ae3f 8ead f33f 69eb dc3f 85c0 af3f
000000d0: 11e2 133f d609 cb3f 78f2 333f b2b6 b13f
000000e0: ca4a b13f 2f3f 483e 98d4 f8ba ce63 d13f
000000f0: 3720 a33f 56f2 3240 66dd 253f 9deb f93f
00000100: 82a3 76bf bc6a 5cbf 0466 c23f 1f62 a83f
00000110: ab3c 8a3f fef3 cb3f 1da8 a23e 1e75 0d40
00000120: 4290 ed3f 0dce ae3f 9d9b 0a40 dbf2 4940
00000130: 847b 72bf 5b07 d73f 57a4 fd3f 581a 0c40
00000140: 7ab5 863f 4438 de3f 915f c73f 566a dc3f
00000150: 565a 8e3f e108 203f 6c70 2f3f ec2e ee3e
00000160: ad16 37bf 5b16 f43f 27d2 923f 7d39 e63f
00000170: a1e4 8d3f 3ecc 953f a853 ee3e b0cb 823e

sequential_4/sequential_1/model1/block_5_depthwise_BN/FusedBatchNormV3;sequential_4/sequential_1/model1/block_5_depthwise_BN/FusedBatchNormV3 f4 [96]
0.45361492 1.885885 -10.240004 -1.4159861 2.2895286 1.0365864 1.1063602 -0.0007918477
-11.223095 -0.00077557564 1.1509302 3.2993286 2.5907476 -1.1732666 -0.62693894 -0.35415426
-0.06856934 0.47651803 0.084590554 0.8992637 0.3762765 -0.09763623 1.0051787 0.44847482
1.0367805 2.6173472 -7.5951924 -1.3788463 -0.41455978 0.33658162 -1.4408252 2.2348752
-0.0016339868 0.9786942 0.0010825023 4.019842 -0.8390339 -0.11498983 2.8553824 1.5083098
-0.006681379 -0.05501664 1.5112439 0.28097522 -2.2861922 -0.0027024895 -1.0957355 0.41939896
-0.35452312 0.11742136 0.02934734 -0.0071746707 -0.08094985 0.06733068 4.0758204 -0.17759174
1.842582 0.8650801 -0.21496333 0.25544435 -1.8395853 1.8505917 -0.24771847 -0.5074947
-1.4523246 0.6961045 0.040217873 -0.015719965 0.5715088 -0.030028008 0.65477693 0.59284323
-0.39608258 -0.45415533 -0.86575484 1.6770185 -1.0148336 0.20539564 0.78834033 -2.760524
-1.0010734 -0.8506353 -0.38377693 0.5206647 -0.20800763 0.15046188 0.0037896335 -0.057743724
3.6059265 -0.17165014 -1.9107798 -0.2185452 -1.4738238 -0.00062668696 3.178469 -0.0041712224
00000000: 3740 e83e ae64 f13f 0ed7 23c1 083f b5bf
00000010: a387 1240 ddae 843f 369d 8d3f 0094 4fba
00000020: cc91 33c1 0050 4bba ae51 933f 3328 5340
00000030: cfce 2540 9a2d 96bf 127f 20bf b553 b5be
00000040: 156e 8cbd 2cfa f33e d03d ad3d 2536 663f
00000050: 50a7 c03e 81f5 c7bd b2a9 803f 7e9e e53e
00000060: 39b5 843f 9e82 2740 d10b f3c0 097e b0bf
00000070: 2e41 d4be 6d54 ac3e f66c b8bf 3208 0f40
00000080: 802b d6ba b48b 7a3f c0e2 8d3a 8ca2 8040
00000090: edca 56bf ca7f ebbd 96be 3640 4c10 c13f
000000a0: 78ef dabb 2159 61bd 7170 c13f fcdb 8f3e
000000b0: f950 12c0 401c 31bb 1041 8cbf 76bb d63e
000000c0: 0e84 b5be 9c7a f03d d569 f03c 8019 ebbb
000000d0: 09c9 a5bd abe4 893d 1f6d 8240 9cda 35be
000000e0: bad9 eb3f e475 5d3f 591f 5cbe 9ac9 823e
000000f0: 8877 ebbf 30e0 ec3f e9a9 7dbe 2ceb 01bf
00000100: c6e5 b9bf e833 323f 7fbb 243d 28c7 80bc
00000110: 674e 123f 4cfd f5bc 769f 273f 93c4 173f
00000120: 56cb cabe 0c87 e8be 1ca2 5dbf 8ba8 d63f
00000130: 11e6 81bf 3c53 523e acd0 493f 6dac 30c0
00000140: 2c23 80bf 3cc3 59bf 697e c4be 484a 053f
00000150: f4ff 54be ae12 1a3e 805b 783b af84 6cbd
00000160: 80c7 6640 0ec5 2fbe 6f94 f4bf 50ca 5fbe
00000170: 42a6 bcbf 4048 24ba 096c 4b40 c0ae 88bb

sequential_4/sequential_1/model1/block_6_expand_BN/FusedBatchNormV3;sequential_4/sequential_1/model1/block_6_expand_BN/FusedBatchNormV3 f4 [96]
1.812821 -0.7446633 -1.2064595 -1.2674078 2.4844904 1.0198158 2.231399 1.7570834
0.41479635 -1.1636561 0.899884 -0.2672235 2.1393764 2.203873 0.12546319 2.3958416
0.1387367 1.5219673 3.0499628 0.7361438 1.8945568 0.22167753 -0.59500426 0.0016975449
-0.55248815 -1.5488485 -0.5168175 -0.38535976 1.366836 0.26152998 1.7172849 0.5961071
-0.83606017 1.307913 -0.7531283 -0.9826713 1.1838055 -1.707624 0.5704356 1.8304316
0.020486554 1.9157124 0.43812907 -0.062423445 1.1637236 -1.1385239 -0.16017002 -1.56418
2.9077013 -0.2700315 2.4948144 2.272539 4.2389164 -2.0139081 0.5561659 1.5591587
-1.7110776 1.5722691 -1.507366 1.1058913 1.0839374 0.6431225 0.049091786 -2.7395723
1.3857881 0.98761797 1.8756169 1.5730562 1.0850599 0.92948365 -0.35097295 -2.2704
0.4626536 1.3808101 -2.3014207 1.828831 -0.056268737 0.5796912 3.742378 -0.8571175
0.9437726 -1.7298555 2.5568016 1.3209351 1.7820207 -0.95296836 2.0753894 -0.08207887
-0.4821735 3.190293 -1.7991717 -1.2390678 1.9249988 0.57003623 1.9667894 2.006812
00000000: 850a e83f 41a2 3ebf 446d 9abf 6b3a a2bf
00000010: e401 1f40 5389 823f 3ecf 0e40 1ce8 e03f
00000020: 3060 d43e aff2 94bf cc5e 663f 85d1 88be
00000030: 8beb 0840 410c 0d40 6c79 003e 7855 1940
00000040: fe10 0e3e d3cf c23f 9732 4340 ec73 3c3f
00000050: d680 f23f 6fff 623e 3352 18bf 2880 de3a
00000060: dd6f 0dbf ab40 c6bf 274e 04bf e04d c5be
00000070: 7bf4 ae3f 42e7 853e fecf db3f 7a9a 183f
00000080: 0a08 56bf b169 a73f 04cd 40bf 5990 7bbf
00000090: f086 973f 6c93 dabf 1108 123f 954b ea3f
000000a0: 6bd3 a73c 1036 f53f 7452 e03e baaf 7fbd
000000b0: e5f4 943f 27bb 91bf 9c03 24be 0d37 c8bf
000000c0: c717 3a40 9241 8abe 0aab 1f40 4771 1140
000000d0: 34a5 8740 dfe3 00c0 e360 0e3f 8392 c73f
000000e0: 9704 dbbf 1d40 c93f 5ef1 c0bf d98d 8d3f
000000f0: 76be 8a3f ada3 243f 7814 493d 2755 2fc0
00000100: 8161 b13f 88d4 7c3f 3714 f03f e859 c93f
00000110: 3ee3 8a3f a4f2 6d3f bab2 b3be 3c4e 11c0
00000120: efe0 ec3e 63be b03f 7a4a 13c0 2217 ea3f
00000130: 0c7a 66bd a466 143f 1f83 6f40 0d6c 5bbf
00000140: 159b 713f e86b ddbf a3a2 2340 6714 a93f
00000150: 4119 e43f bcf5 73bf 2ed3 0440 f718 a8bd
00000160: 72df f6be c32d 4c40 424b e6bf c699 9ebf
00000170: 5c66 f63f e5ed 113f c1bf fb3f 9c6f 0040

sequential_4/sequential_1/model1/block_6_depthwise_BN/FusedBatchNormV3;sequential_4/sequential_1/model1/block_6_depthwise_BN/FusedBatchNormV3 f4 [96]
4.392338 0.097509086 0.015464544 -0.003069371 4.115449 0.09993756 -2.4958906 -0.41912788
4.9018474 0.36598766 2.5357082 5.2327414 2.0050492 4.0581045 0.89834684 2.047885
1.643833 2.894179 2.4825945 0.06315887 2.206546 -0.007702768 0.022396326 5.9744244
-0.055645257 0.4403558 1.8038454 1.2706922 -0.17604546 0.04533434 0.0125211775 2.0308056
1.5249352 0.021258593 -0.013149172 2.8834612 0.29122448 -0.005603552 5.93971 -0.015007034
5.940097 1.7331066 1.7950472 -0.013249457 1.636278 -0.012579203 0.14569187 -0.10725695
2.240432 0.008701444 1.4059542 3.8300443 3.721599 0.03203313 0.12765384 4.1243253
0.11889115 0.1807223 0.04961455 2.3187437 0.112192914 0.32182717 0.9650825 0.038366973
0.059462905 1.5338378 -0.21982987 1.9817469 0.36587238 0.3610171 1.4519279 0.0215379
0.119472 0.015079342 0.8320727 3.9822826 0.058250725 2.7745059 3.391852 0.01630351
0.03636861 0.00079131126 2.9122908 0.04175417 3.2707329 -0.00786525 -0.21478656 1.840465
-0.007148981 5.9848213 -0.003992915 0.032736093 -0.14418003 3.0905406 -2.67622 0.16296116
00000000: 088e 8c40 d8b2 c73d 005f 7d3c 8027 49bb
00000010: c2b1 8340 10ac cc3d acbc 1fc0 ee97 d6be
00000020: efdb 9c40 bc62 bb3e 0b49 2240 9e72 a740
00000030: ba52 0040 fedb 8140 0ffa 653f 8c10 0340
00000040: 1f69 d23f 3b3a 3940 d4e2 1e40 7059 813d
00000050: 0d38 0d40 8067 fcbb 8078 b73c 7c2e bf40
00000060: 48ec 63bd 5176 e13e 68e4 e63f 0ba6 a23f
00000070: 4345 34be 80b0 393d a025 4d3c b8f8 0140
00000080: 1431 c33f 8026 ae3c a06f 57bc a18a 3840
00000090: 601b 953e 009e b7bb 1b12 be40 10e0 75bc
000000a0: 4615 be40 70d6 dd3f 1bc4 e53f 4014 59bc
000000b0: 8f71 d13f 0019 4ebc 4030 153e 88a9 dbbd
000000c0: 3d63 0f40 8090 0e3c 4ff6 b33f 721f 7540
000000d0: ae2e 6e40 2c35 033d b0b7 023e 79fa 8340
000000e0: 347d f33d 440f 393e a038 4b3d 4c66 1440
000000f0: 66c5 e53d 88c6 a43e a60f 773f b026 1d3d
00000100: 608f 733d cc54 c43f 151b 61be e2a9 fd3f
00000110: a053 bb3e 3cd7 b83e c6d8 b93f 4070 b03c
00000120: bcad f43d 580f 773c b702 553f b8dd 7e40
00000130: 5098 6e3d 8191 3140 1a14 5940 f08e 853c
00000140: 40f7 143d 0070 4f3a f962 3a40 6c06 2b3d
00000150: b053 5140 40dd 00bc 02f1 5bbe 5b94 eb3f
00000160: 0042 eabb a883 bf40 00d7 82bb 4816 063d
00000170: eea3 13be 6bcb 4540 3047 2bc0 4adf 263e

sequential_4/sequential_1/model1/block_7_expand_BN/FusedBatchNormV3;sequential_4/sequential_1/model1/block_7_expand_BN/FusedBatchNormV3 f4 [144]
1.6463481 2.1713378 1.3933369 1.0693233 1.7604011 1.3860539 1.6621537 1.7004942
1.9490954 1.3428736 1.6101704 1.609499 1.2570947 0.88531893 -1.7242192 1.1039505
1.8085502 2.0711808 2.2038946 1.7960905 1.9958566 1.8553374 -0.20322096 1.7009565
1.7184278 -2.255348 1.5064539 1.1903652 1.8290035 0.96895593 1.5613986 -1.4093621
-0.1882176 2.3828354 1.6638708 -0.647206 1.2078385 1.5663571 1.066979 1.4733906
1.4849216 1.6795564 -0.8186269 -0.66842467 1.691352 1.9503988 0.9850858 0.26392746
0.9166926 1.6777148 -0.40154842 0.9973363 1.082023 1.897721 1.9966015 0.6926215
1.8821377 -0.15270959 -1.137101 1.7508713 1.7714331 1.8355325 1.1661935 2.4298413
2.227425 1.157123 1.2474343 0.8092344 1.6506644 -0.65490186 1.7414874 0.10666636
0.9755924 1.0505372 2.385306 -1.1885073 0.5814004 -2.9010904 0.12910827 2.412363
2.0440152 1.2848015 2.5998716 1.968032 -1.4685196 -0.10966009 1.8090925 1.5274569
1.5929075 1.9858837 0.24227463 -0.9497635 -0.74237347 1.5783341 1.8319771 1.7691997
-0.12814981 1.2403787 0.4014529 2.1248953 0.8859162 1.3089334 1.6898159 1.1832033
1.2318714 1.411673 3.0137331 1.4240744 -0.7630461 1.4144266 1.3863702 1.4746183
1.296197 3.7191734 -1.2895263 2.2388148 0.34744057 1.1770842 3.2449324 -0.1157794
1.544 0.9430882 0.4931531 -0.8900806 1.973818 1.3994291 -0.99818677 0.3658248
0.85334873 1.6697234 0.3903964 0.9709992 1.496039 1.7804297 2.5844207 0.72944236
1.8207154 0.71475834 1.0261202 1.2856474 1.3925925 1.9119711 2.200474 2.1051939
00000000: 89bb d23f 33f7 0a40 dd58 b23f 96df 883f
00000010: d354 e13f 376a b13f 74c1 d43f cba9 d93f
00000020: f57b f93f 48e3 ab3f 101a ce3f 1004 ce3f
00000030: 7be8 a03f 43a4 623f 37b3 dcbf 404e 8d3f
00000040: 937e e73f 3a8e 0440 9c0c 0d40 4be6 e53f
00000050: 3b78 ff3f b27b ed3f 2819 50be f1b8 d93f
00000060: 71f5 db3f 9f57 10c0 7bd3 c03f e35d 983f
00000070: c91c ea3f 7f0d 783f e9db c73f fa65 b4bf
00000080: 1dbc 40be 6080 1840 b8f9 d43f 4baf 25bf
00000090: 749a 9a3f 647e c83f c592 883f 1098 bc3f
000000a0: e911 be3f b4fb d63f 8891 51bf e11d 2bbf
000000b0: 397e d83f aba6 f93f 952e 7c3f 8021 873e
000000c0: 5eac 6a3f 5cbf d63f c197 cdbe 6f51 7f3f
000000d0: bb7f 8a3f 86e8 f23f a390 ff3f a54f 313f
000000e0: e3e9 f03f e75f 1cbe 878c 91bf 8d1c e03f
000000f0: 52be e23f bbf2 ea3f d445 953f 8582 1b40
00000100: 228e 0e40 9b1c 943f edab 9f3f fc29 4f3f
00000110: f948 d33f a6a7 27bf 0fe9 de3f e473 da3d
00000120: 6cc0 793f 0178 863f daa8 1840 0221 98bf
00000130: a8d6 143f 77ab 39c0 f534 043e 2864 1a40
00000140: 25d1 0240 6074 a43f 4c64 2640 79e8 fb3f
00000150: 73f8 bbbf 7895 e0bd 5890 e73f b583 c33f
00000160: 65e4 cb3f 7031 fe3f d716 783e b323 73bf
00000170: 300c 3ebf da06 ca3f 3a7e ea3f 2375 e23f
00000180: b439 03be bbc4 9e3f 3c8b cd3e 49fe 0740
00000190: 67cb 623f 218b a73f e34b d83f 3573 973f
000001a0: f6ad 9d3f b3b1 b43f 01e1 4040 1248 b63f
000001b0: fd56 43bf ee0b b53f 9474 b13f 4bc0 bc3f
000001c0: c9e9 a53f f006 6e40 330f a5bf be48 0f40
000001d0: bbe3 b13e b2aa 963f f9ac 4f40 c01d edbd
000001e0: cba1 c53f 3a6e 713f 907e fc3e 52dc 63bf
000001f0: 11a6 fc3f 7e20 b33f 2b89 7fbf 634d bb3e
00000200: 1075 5a3f 7fb9 d53f 09e2 c73e 6793 783f
00000210: 357e bf3f 1fe5 e33f 2667 2540 bcbc 3a3f
00000220: 340d e93f 67fa 363f e857 833f 1890 a43f
00000230: 7940 b23f 78bb f43f 91d4 0c40 7fbb 0640

sequential_4/sequential_1/model1/block_7_depthwise_BN/FusedBatchNormV3;sequential_4/sequential_1/model1/block_7_depthwise_BN/FusedBatchNormV3 f4 [144]
-2.4504426 3.712563 0.099119306 0.0026568323 -0.083767906 -0.12246296 -0.008470925 -0.020096354
-0.0055345856 0.14081934 -0.11046242 -0.11089588 -0.14675634 0.006528288 -1.0109886 -0.16559577
0.017812908 1.3914006 -2.1921642 0.55270845 0.023314405 2.1983817 2.4888847 -0.078910805
0.055588827 -1.9583588 0.61333776 -1.6824824 0.014242563 -3.0008187 -0.13142899 -1.9360622
-1.2147579 6.193289 0.070183635 -1.8680245 1.4896079 -0.0011279881 0.17442924 6.8016458
2.6523075 10.431631 -0.006890148 -0.16503179 -0.18732348 0.022079103 -0.8246644 0.0018230975
-0.61992604 -2.472931 -3.2383337 -0.20430732 -5.815317 0.9180539 5.057604 0.26119673
2.2345943 -1.3733982 1.2569726 -1.960677 -0.065242276 0.02863428 0.035103217 -0.03185638
0.10748711 3.12685 -0.22751838 -0.26719376 0.20072612 -1.3709059 1.5371765 4.1306057
-2.1053472 1.76301 3.3744972 0.4673426 -0.047474116 0.2998716 -1.4614575 -0.02743034
0.13839465 0.042432904 11.20672 -0.40010938 -2.4024441 2.8624222 -0.011377901 -0.042432353
2.8023446 -0.22667822 2.885076 3.0441523 -0.03230852 0.083915316 -0.031331293 0.37793723
-0.054216765 -1.527724 -0.82768536 0.17669891 0.21050456 0.039443046 1.354701 0.19718248
1.7716507 0.60086405 -2.2983463 0.046257704 -3.498298 -2.5625966 0.09037121 -0.2771154
-0.008792475 0.21915512 -0.0015953332 0.17857644 2.4808521 2.1606274 -1.8273795 -0.92513347
0.029266179 -2.1956787 1.4301684 -1.6285747 2.7621539 -0.029352352 0.9342985 -0.7854456
0.106719926 -0.9493413 1.4453225 2.127665 0.08225408 0.07354328 7.1035504 -1.762962
-0.28373015 -2.3543468 -0.11090654 4.3474727 -9.829647 3.340268 0.20735808 -0.22827053
00000000: 0dd4 1cc0 a29a 6d40 10ff ca3d 401e 2e3b
00000010: 828e abbd dccd fabd a2c9 0abc 1ca1 a4bc
00000020: 785b b5bb f232 103e 1f3a e2bd 611d e3bd
00000030: 4b47 16be 40eb d53b 1368 81bf f091 29be
00000040: 60ec 913c 6a19 b23f 6b4c 0cc0 4d7e 0d3f
00000050: dafd be3c 49b2 0c40 e349 1f40 fd9b a1bd
00000060: 1cb1 633d 80ab fabf b403 1d3f 955b d7bf
00000070: a459 693c 6a0d 40c0 5295 06be e3d0 f7bf
00000080: 307d 9bbf 6c2f c640 70bc 8f3d 6d1b efbf
00000090: 79ab be3f 00d9 93ba 949d 323e 15a7 d940
000000a0: 68bf 2940 f6e7 2641 c0c6 e1bb 18fe 28be
000000b0: bad1 3fbe 3cdf b43c 351d 53bf 00f5 ee3a
000000c0: 79b3 1ebf 8044 1ec0 dc40 4fc0 f035 51be
000000d0: 1417 bac0 9505 6b3f e4d7 a140 94bb 853e
000000e0: 9803 0f40 83cb afbf 7ae4 a03f 77f7 fabf
000000f0: be9d 85bd 7092 ea3c 64c8 0f3d d67b 02bd
00000100: 3422 dc3d 4f1e 4840 94fa 68be 9fcd 88be
00000110: 268b 4d3e d879 afbf 33c2 c43f ec2d 8440
00000120: 02be 06c0 50aa e13f c3f7 5740 8747 ef3e
00000130: 3874 42bd c588 993e 0a11 bbbf 98b5 e0bc
00000140: 54b7 0d3e 20ce 2d3d ba4e 3341 23db ccbe
00000150: a5c1 19c0 ed31 3740 606a 3abc 8ccd 2dbd
00000160: 9d59 3340 561e 68be 16a5 3840 64d3 4240
00000170: f055 04bd cbdb ab3d 3e55 00bd fd80 c13e
00000180: 6612 5ebd 768c c3bf 30e3 53bf 8ff0 343e
00000190: 828e 573e 088f 213d d866 ad3f 34ea 493e
000001a0: 73c5 e23f 3ad2 193f 1b18 13c0 b878 3d3d
000001b0: 1de4 5fc0 9501 24c0 8a14 b93d 12e2 8dbe
000001c0: 500e 10bc 336a 603e 801a d1ba bedc 363e
000001d0: 48c6 1e40 b847 0a40 92e7 e9bf 8cd5 6cbf
000001e0: a0bf ef3c 0086 0cc0 c20f b73f 2375 d0bf
000001f0: 21c7 3040 5874 f0bc 302e 6f3f f612 49bf
00000200: fa8f da3d 0808 73bf 5400 b93f aa2b 0840
00000210: d474 a83d dc9d 963d 4950 e340 bda8 e1bf
00000220: 1445 91be 9ead 16c0 f822 e3bd 7f1e 8b40
00000230: 3c46 1dc1 f3c6 5540 ad55 543e c0bf 69be

sequential_4/sequential_1/model1/block_8_expand_BN/FusedBatchNormV3;sequential_4/sequential_1/model1/block_8_expand_BN/FusedBatchNormV3 f4 [144]
-0.73490316 1.1841851 1.1434127 1.4279187 1.0584624 1.6770554 1.7132181 1.3940442
-1.2588108 0.53054434 1.3636621 1.5551443 1.1968551 1.4169865 1.2526014 1.2737939
-0.006774657 -0.31704503 1.0409442 1.5781533 1.4734981 1.4974239 3.339042 1.3775722
1.8230586 1.3380138 1.179813 1.3418379 1.9584419 1.3795204 1.5067716 2.092868
1.5460285 1.779929 1.0883541 -0.7534069 1.3083419 1.8653303 1.4148569 1.0991774
1.03409 -1.0842638 1.9192696 1.3546842 1.1540854 2.0019405 1.4745727 -0.23158772
0.8304248 0.75431484 -0.17236437 -1.1738807 0.4446582 -0.4367522 1.8237488 1.6069148
1.1589838 0.6690202 1.656821 1.5582024 1.3353161 1.6171643 1.5746115 -2.6406424
1.2537417 0.5438149 -0.007434623 1.3522366 -0.119895935 2.3413846 0.5021207 -0.7432228
1.3878237 1.9022015 0.28715026 0.9447002 1.2685647 -0.23396711 -0.012892366 -0.14532311
0.5656005 1.463755 -0.3949372 1.2235225 0.8046692 0.69460016 1.3471771 0.51039433
0.7669143 1.4738642 -0.32059878 -0.58134395 1.5066633 0.5462482 1.4074701 1.7056631
1.7288076 0.55329686 0.232898 1.0903145 1.469744 1.04326 1.0836594 1.6110591
2.0332332 1.8931382 -0.23748 1.5048995 0.402587 2.1000779 -1.4637014 0.28726402
-0.23218936 0.39514962 1.4818434 1.110765 1.1558359 2.1386518 1.1374036 0.23406869
1.2724271 1.484676 1.3343706 1.7883487 1.4372903 1.7890395 -0.5048297 0.42896992
1.1800886 1.159705 0.7460086 1.4229122 -0.2526058 2.85942 -0.9679025 -0.96818423
0.800744 1.2869844 -0.14444251 2.2221787 1.7285411 0.06160739 0.29327893 0.79247165
00000000: 9d22 3cbf 6193 973f 595b 923f 0ac6 b63f
00000010: b27b 873f c0a9 d63f bb4a db3f 0a70 b23f
00000020: b620 a1bf c1d1 073f 7b8c ae3f f80e c73f
00000030: 8c32 993f d05f b53f 3e55 a03f ae0b a33f
00000040: f1fd ddbb ba53 a2be a93d 853f ed00 ca3f
00000050: 969b bc3f 96ab bf3f ddb2 5540 4954 b03f
00000060: fc59 e93f 0944 ab3f 1d04 973f 58c1 ab3f
00000070: 39ae fa3f 2094 b03f e4dd c03f 8df1 0540
00000080: 43e4 c53f b7d4 e33f 304f 8b3f 46df 40bf
00000090: bf77 a73f 25c3 ee3f 081a b53f d8b1 8c3f
000000a0: 105d 843f 28c9 8abf a0aa f53f 4b66 ad3f
000000b0: 12b9 933f cb1f 0040 ccbe bc3f 5525 6dbe
000000c0: b896 543f c71a 413f 4980 30be b941 96bf
000000d0: 3daa e33e fc9d dfbe 9a70 e93f 62af cd3f
000000e0: 9559 943f e844 2b3f b612 d43f 2d73 c73f
000000f0: a3eb aa3f 3dff ce3f df8c c93f 4900 29c0
00000100: 9c7a a03f 7437 0b3f 239e f3bb 1716 ad3f
00000110: 008c f5bd 3fd9 1540 fb8a 003f d943 3ebf
00000120: 35a4 b13f 577b f33f 5c05 933e dfd7 713f
00000130: 5460 a23f 1395 6fbe 813a 53bc 95cf 14be
00000140: 32cb 103f 535c bb3f 3535 cabe 639c 9c3f
00000150: cdfe 4d3f 51d1 313f 4d70 ac3f 34a9 023f
00000160: 7f54 443f 95a7 bc3f 8625 a4be f5d2 14bf
00000170: 58da c03f ecd6 0b3f fb27 b43f 2b53 da3f
00000180: 9149 dd3f dda4 0d3f d07c 6e3e 6d8f 8b3f
00000190: 9220 bc3f 8b89 853f 5ab5 8a3f 2f37 ce3f
000001a0: 7e20 0240 5a52 f23f f52d 73be 8ca0 c03f
000001b0: e21f ce3e ad67 0640 915a bbbf 4514 933e
000001c0: 0cc3 6dbe 0d51 ca3e 0bad bd3f 8c2d 8e3f
000001d0: 6ef2 933f acdf 0840 7196 913f b4af 6f3e
000001e0: e4de a23f dd09 be3f a8cc aa3f 9ce8 e43f
000001f0: 21f9 b73f 3fff e43f 853c 01bf f2a1 db3e
00000200: 250d 973f 3771 943f 6bfa 3e3f fd21 b63f
00000210: 8c55 81be bd00 3740 75c8 77bf ecda 77bf
00000220: 8ffd 4c3f e8bb a43f bde8 13be 2d38 0e40
00000230: d640 dd3f 0858 7c3d a828 963e 6cdf 4a3f

sequential_4/sequential_1/model1/block_8_depthwise_BN/FusedBatchNormV3;sequential_4/sequential_1/model1/block_8_depthwise_BN/FusedBatchNormV3 f4 [144]
-1.4671866 -3.4707203 0.09426516 -2.1939607 -0.6170858 1.1095427 0.08365597 0.008125961
-0.85040855 -1.7424717 -0.6068189 -0.42487955 -1.4966259 -0.6531254 -1.6117084 -0.12032238
-0.70389485 1.2778313 -0.055755205 -0.5635961 -0.501892 0.1726327 -2.908125 -0.078787886
-0.06128645 -0.097642064 -4.386091 0.7221126 -0.66157293 -0.29784918 1.494137 0.8670956
2.8474798 0.16346103 0.1835694 -1.1787369 0.6247882 -0.6497072 -0.32902968 0.2751367
0.050770603 1.3301424 -7.6185336 0.15813917 -1.0704882 6.2655735 -0.028145105 2.7775497
1.0159516 -4.1382933 3.300459 -0.59001493 -0.11728883 -0.7554282 -0.09158107 -2.1878057
2.4947834 -1.0399395 0.069403104 -1.2740406 -0.014282301 -1.8086303 -0.16768244 0.66235554
0.07508734 -1.2013161 2.6212418 0.98254305 -0.37940508 2.672104 3.540585 2.3484404
-1.0226696 0.401394 0.019183397 1.3399622 0.24513851 -1.974581 1.4161464 -0.2319287
1.4164956 -4.284301 -4.231671 0.23094004 -2.0406606 1.7270011 0.17810877 1.474406
0.023090139 0.3855319 -0.74914527 -1.2722554 0.005041644 -0.14046642 3.049873 -2.2038593
3.280755 -0.29469502 -0.27176285 0.08394872 -0.009402543 2.2913737 -6.774193 -0.045048892
5.6387153 0.023547553 -2.0543885 -0.53849137 0.044184864 -0.42694172 -0.8340426 -0.22123514
-1.3051246 1.1128854 1.2706491 0.051429875 -6.58218 3.731223 0.00040012598 1.5383004
0.022106074 -0.11636339 -0.21725848 0.65411067 1.2362504 -1.7362223 -0.53805417 1.2761184
-0.06402457 1.8050199 -0.026712298 0.17790398 -1.8507241 1.2093804 1.4248793 0.0027484223
1.6417983 -0.09707761 -0.90525657 6.8108363 0.16353318 -1.2002323 -2.6548407 1.7078074
00000000: c5cc bbbf 4820 5ec0 180e c13d da69 0cc0
00000010: 56f9 1dbf 7f05 8e3f d253 ab3d c022 053c
00000020: 60b4 59bf 5009 dfbf 7c58 1bbf d089 d9be
00000030: 7091 bfbf 3a33 27bf 764c cebf 946b f6bd
00000040: 7432 34bf fa8f a33f 925f 64bd d647 10bf
00000050: fe7b 00bf a0c6 303e b81e 3ac0 8b5b a1bd
00000060: 8007 7bbd 90f8 c7bd dc5a 8cc0 5fdc 383f
00000070: d85c 29bf b07f 98be e23f bf3f faf9 5d3f
00000080: 1c3d 3640 5462 273e 9ef9 3b3e dae0 96bf
00000090: 1ff2 1f3f 3653 26bf 9476 a8be b8de 8c3e
000000a0: d6f4 4f3d 1b42 aa3f 07cb f3c0 3cef 213e
000000b0: c205 89bf 947f c840 9090 e6bc 60c3 3140
000000c0: b40a 823f e66c 84c0 b83a 5340 380b 17bf
000000d0: 2035 f0bd be63 41bf db8e bbbd 0205 0cc0
000000e0: 88aa 1f40 bd1c 85bf 3723 8e3d c313 a3bf
000000f0: 5000 6abc 3381 e7bf f2b4 2bbe 2290 293f
00000100: 64c7 993d bac4 99bf 6dc2 2740 f187 7b3f
00000110: 6241 c2be c003 2b40 f298 6240 d94c 1640
00000120: d6e6 82bf 8483 cd3e 8026 9d3c e283 ab3f
00000130: 9705 7b3e 12bf fcbf 4944 b53f b87e 6dbe
00000140: ba4f b53f fe18 89c0 d969 87c0 8c7b 6c3e
00000150: 2f9a 02c0 5f0e dd3f 2562 363e 56b9 bc3f
00000160: 8827 bd3c 7064 c53e fcc7 3fbf 44d9 a2bf
00000170: 6034 a53b 6ed6 0fbe 1f31 4340 080c 0dc0
00000180: e4f7 5140 44e2 96be 8024 8bbe 4eed ab3d
00000190: 200d 1abc dea5 1240 30c6 d8c0 3085 38bd
000001a0: 5b70 b440 cce6 c03c 1a7b 03c0 92da 09bf
000001b0: 30fb 343d 1b98 dabe d183 55bf 778b 62be
000001c0: 530e a7bf 0773 8e3f a1a4 a23f 22a8 523d
000001d0: 38a1 d2c0 5ccc 6e40 00c8 d139 07e7 c43f
000001e0: cc17 b53c ee4f eebd 0279 5ebe cc73 273f
000001f0: 743d 9e3f 883c debf ebbd 09bf d957 a33f
00000200: 501f 83bd e40a e73f c0d3 dabc 762c 363e
00000210: 87e4 ecbf facc 9a3f 7262 b63f e01e 343b
00000220: 7226 d23f a0d0 c6bd e5be 67bf 5ff2 d940
00000230: 3e75 273e 36a1 99bf e9e8 29c0 6f99 da3f

sequential_4/sequential_1/model1/block_9_expand_BN/FusedBatchNormV3;sequential_4/sequential_1/model1/block_9_expand_BN/FusedBatchNormV3 f4 [144]
1.2960936 1.7464554 1.1803054 -0.55256194 -0.6107498 1.4393685 0.114222355 -0.37072548
-1.0272926 -1.2208424 1.6560315 1.519181 0.6356771 1.0777632 0.97055024 -0.42608276
0.60722446 1.3532467 1.1959811 0.44597638 -0.5735622 2.1693988 1.9482127 0.31551835
0.004593131 -0.50744873 1.1833762 1.2213407 -0.28759184 -0.8279976 -0.074316405 0.4222178
0.93826014 -0.5170382 -0.13061558 1.364099 1.3048793 1.0112437 1.4892118 1.5280719
-0.94751686 -0.46509656 -0.3374952 0.94111854 -0.0073328735 -0.19000763 1.0395068 -1.1191683
-0.44707662 -0.2631452 -0.4450982 0.33000332 -0.112881795 1.2443576 -0.9817896 0.5001489
2.0299726 1.2068917 -0.40402043 1.515546 2.2777238 1.1243095 -0.34094158 1.0093225
0.50507224 0.10083057 1.4302299 -0.44615746 -0.16813491 1.783708 0.6747905 -1.403573
1.6642584 -0.8271482 2.2537339 -1.4116148 -1.083268 1.9498717 0.45716062 0.019165246
1.3679892 0.76416034 -0.48695943 1.0991161 -0.066700056 0.9611901 0.42848316 0.007919556
0.5918068 1.1080483 1.20829 0.14817232 -0.67275625 0.94284755 1.2604907 1.5815576
1.2785515 0.08352754 -0.019817764 1.4455779 0.9098509 -1.1749501 0.83734524 0.8692551
1.2325064 -0.8456724 1.1571363 0.7091241 0.9277446 0.51689 -0.5248611 -0.5847044
0.9641723 1.2734329 0.7834493 -0.07707249 1.3011755 0.118856624 0.34969845 -0.621405
1.2518755 0.20419149 0.83437985 1.6881317 -0.6599055 -0.62239325 -0.28482974 -1.5139399
0.7181839 -0.9270945 1.3411922 1.1462699 1.2634317 1.7357779 0.049434207 1.1486816
-0.9102331 -0.43122947 -1.0773082 0.16085024 1.7495111 -0.92100155 1.2835759 1.018435
00000000: 65e6 a53f da8b df3f 3f14 973f b374 0dbf
00000010: 195a 1cbf 3a3d b83f 69ed e93d bbcf bdbe
00000020: 537e 83bf 9044 9cbf d7f8 d33f 8674 c23f
00000030: bcbb 223f 25f4 893f fb75 783f 8527 dabe
00000040: 1073 1b3f 3037 ad3f e915 993f 0457 e43e
00000050: f9d4 12bf 6ed7 0a40 095f f93f 9f8b a13e
00000060: fa81 963b 29e8 01bf df78 973f e454 9c3f
00000070: 3d3f 93be a7f7 53bf 3333 98bd ee2c d83e
00000080: d131 703f 9e5c 04bf 17c0 05be cc9a ae3f
00000090: 4906 a73f 6f70 813f 7e9e be3f dc97 c33f
000000a0: 7790 72bf 2321 eebe 2ccc acbe 25ed 703f
000000b0: 9a48 f0bb 5c91 42be 8f0e 853f e840 8fbf
000000c0: 3ae7 e4be f8ba 86be e9e3 e3be 32f6 a83e
000000d0: 922e e7bd 1c47 9f3f 9056 7bbf c209 003f
000000e0: 12eb 0140 6d7b 9a3f c4db cebe 69fd c13f
000000f0: 3ac6 1140 60e9 8f3f e58f aebe 7b31 813f
00000100: 6a4c 013f 4280 ce3d c611 b73f c06e e4be
00000110: 8f2b 2cbe 8b50 e43f 12bf 2c3f 48a8 b3bf
00000120: 6b06 d53f fcbf 53bf 2d3d 1040 cbaf b4bf
00000130: 87a8 8abf 6595 f93f f510 ea3e 6f00 9d3c
00000140: 451a af3f 03a0 433f bf52 f9be d6af 8c3f
00000150: 0a9a 88bd 8e10 763f 2562 db3e 07c1 013c
00000160: a780 173f 87d4 8d3f 3fa9 9a3f 7cba 173e
00000170: c139 2cbf 755e 713f c257 a13f 7b70 ca3f
00000180: 93a7 a33f 7d10 ab3d dd58 a2bc b208 b93f
00000190: fdeb 683f c464 96bf 425c 563f 8187 5e3f
000001a0: c5c2 9d3f fd7d 58bf 0b1d 943f 2889 353f
000001b0: ac80 6d3f e752 043f 4c5d 06bf 30af 15bf
000001c0: ffd3 763f d9ff a23f 2290 483f 2ed8 9dbd
000001d0: eb8c a63f 1a6b f33d ad0b b33e 6614 1fbf
000001e0: 753d a03f 9317 513e eb99 553f b314 d83f
000001f0: 91ef 28bf 2a55 1fbf 34d5 91be c8c8 c1bf
00000200: e6da 373f 1156 6dbf 30ac ab3f f9b8 923f
00000210: 21b8 a13f f82d de3f 867b 4a3d 0008 933f
00000220: 0905 69bf 1cca dcbe 3ce5 89bf edb5 243e
00000230: fbef df3f c2c6 6bbf 374c a43f 145c 823f

sequential_4/sequential_1/model1/block_9_depthwise_BN/FusedBatchNormV3;sequential_4/sequential_1/model1/block_9_depthwise_BN/FusedBatchNormV3 f4 [144]
-3.4727387 2.9082332 -0.6784631 -0.66303295 -2.2233458 4.1846952 2.9793246 1.0331062
-1.1380445 -0.3403002 1.1239688 1.3494507 -1.9053874 -1.8256252 1.6526315 1.3300552
-2.5476544 -0.17698762 -0.35216868 -0.50996244 2.1906977 5.173941 -0.08047426 0.3307403
-0.700837 -1.4282184 -0.19571751 0.001895804 -2.2599523 -2.197919 1.4227259 -0.21253975
-0.0014056116 -0.94806224 -1.5350395 -4.2247696 0.49136525 0.6274346 -0.6417607 1.0703341
0.09960964 -3.4531264 -0.81615937 1.6135677 -0.16852269 -2.3482842 -0.02727963 -0.52235234
-0.11423372 -1.3137443 1.4795586 -0.8747208 -1.5426047 1.800483 3.2589936 0.15127808
5.9562836 -3.730433 3.275845 0.9929264 -5.4628468 -1.0430013 1.74548 -1.8574066
1.2898306 -2.3473177 -1.3605666 -0.7532182 0.0054961443 3.8286319 -1.1021918 -1.0391502
-0.38683414 -0.8652314 3.5253737 0.014171958 3.8697839 4.0976396 -1.1549538 1.860301
-1.5611911 -2.2876134 -0.93783975 0.0011134595 1.3908491 -0.37930423 -0.06698802 -0.0075441003
1.2679609 0.16740648 2.8194542 2.799841 0.41697556 -2.9783325 -1.2335428 4.3901677
-4.2064576 -2.3297749 3.1745899 0.2437104 -1.3531942 -2.1274889 1.8617609 0.33848548
-0.7349845 3.6077693 0.34898984 -0.09843761 -1.3102958 2.6391351 -1.6352737 -4.3444147
0.13306047 3.720427 -2.145352 -3.7330213 -1.5889462 -4.3034716 -0.29279715 -2.709159
-3.3570395 -0.99249303 0.020202495 0.4287638 -0.75394 -1.0577444 2.5407243 -1.1244794
-1.4678061 -0.084964596 -0.23225528 1.8813196 0.24463248 0.78458756 -0.6528496 -3.0478349
-0.18754469 -2.2552829 0.24639714 1.1539607 0.62447274 -3.0055451 -0.22525576 -2.2237887
00000000: 5a41 5ec0 7e20 3a40 c2af 2dbf 87bc 29bf
00000010: 4c4b 0ec0 06e9 8540 41ad 3e40 d33c 843f
00000020: 71ab 91bf d43b aebe 36de 8f3f cdba ac3f
00000030: bce3 f3bf 16ae e9bf 6e89 d33f 403f aa3f
00000040: c50c 23c0 3e3c 35be 744f b4be e68c 02bf
00000050: 6434 0c40 ed90 a540 b0cf a4bd cb56 a93e
00000060: 0e6a 33bf dccf b6bf 2c6a 48be a07c f83a
00000070: 0fa3 10c0 b4aa 0cc0 e21b b63f 05a4 59be
00000080: 803c b8ba 35b4 72bf 2d7c c4bf 5031 87c0
00000090: 3a94 fb3e 8e9f 203f 6e4a 24bf b500 893f
000000a0: 2400 cc3d 0600 5dc0 d2ef 50bf 6389 ce3f
000000b0: 3691 2cbe 4a4a 16c0 8879 dfbc e2b8 05bf
000000c0: 5ef3 e9bd c628 a8bf 2d62 bd3f b4ed 5fbf
000000d0: 1274 c5bf 3a76 e63f 5a93 5040 a4e8 1a3e
000000e0: e099 be40 6abf 6ec0 72a7 5140 6d30 7e3f
000000f0: a4cf aec0 1181 85bf e36b df3f 80bf edbf
00000100: 2b19 a53f 743a 16c0 0c27 aebf e8d2 40bf
00000110: 0019 b43b 4e08 7540 9f14 8dbf e002 85bf
00000120: 200f c6be ce7f 5dbf b99f 6140 8031 683c
00000130: 8aaa 7740 dd1f 8340 87d5 93bf 581e ee3f
00000140: 1cd5 c7bf 4268 12c0 4416 70bf 80f1 913a
00000150: 5807 b23f 2a34 c2be 0431 89bd 8034 f7bb
00000160: 8b4c a23f 9b6c 2b3e f071 3440 9830 3340
00000170: d27d d53e 009d 3ec0 bbe4 9dbf 417c 8c40
00000180: 4d9b 86c0 081b 15c0 7b2c 4b40 388f 793e
00000190: 7835 adbf c728 08c0 2e4e ee3f f84d ad3e
000001a0: f227 3cbf b1e5 6640 ccae b23e a899 c9bd
000001b0: c6b7 a7bf 97e7 2840 a650 d1bf 7205 8bc0
000001c0: 0141 083e 7a1b 6e40 724d 09c0 d2e9 6ec0
000001d0: 9762 cbbf 0ab6 89c0 82e9 95be dc62 2dc0
000001e0: bcd9 56c0 0614 7ebf b47f a53c ee86 db3e
000001f0: 3602 41bf 2b64 87bf 3a9b 2240 f1ee 8fbf
00000200: 12e1 bbbf eb01 aebd 54d4 6dbe 15cf f03f
00000210: f080 7a3e bbda 483f 2721 27bf ba0f 43c0
00000220: b70b 40be 8e56 10c0 884f 7c3e fcb4 933f
00000230: 72dd 1f3f da5a 40c0 72a9 66be 8e52 0ec0

sequential_4/sequential_1/model1/block_10_expand_BN/FusedBatchNormV3;sequential_4/sequential_1/model1/block_10_expand_BN/FusedBatchNormV3 f4 [144]
-0.26619634 0.2538796 1.212273 1.1427659 1.0960227 1.640935 0.988925 0.9363964
2.0425699 2.1607983 2.5785158 1.6005956 0.13572428 0.4463478 -1.1288077 -0.27681452
0.72119445 1.120814 -0.20024012 -0.70886064 0.7646354 -0.86157525 0.91376656 1.7808046
-0.29528782 2.3801258 -0.8383802 2.156368 0.6715468 1.4360577 0.50416654 -0.12073311
-0.5564449 -0.50144804 1.8084434 -0.16046919 0.6020896 0.9678979 0.9567545 -0.8094411
2.5825078 0.57296175 0.45603147 1.093761 0.7878243 0.28551042 1.4666895 1.7600421
1.5946759 0.23004147 1.3949981 -1.5233809 2.448298 2.6381135 2.5787075 1.0763713
2.7074378 -1.137976 1.3434414 -0.48776627 1.3487209 2.8671837 -1.9280254 0.1597267
-0.9068399 1.7739981 0.26194605 0.9570792 2.475979 -0.33664277 -0.034378603 -0.7655167
1.6174126 1.5024238 2.4970393 0.6563486 0.4779533 -1.1181313 -1.43133 -0.9403275
-0.56662726 2.3823633 -0.52372515 1.5070052 -0.53330517 1.9697533 -0.1949271 1.9780434
0.30274194 0.09862625 -0.094585806 0.42907897 2.04924 0.5254668 2.8649085 0.863796
1.4677162 0.35490757 0.4213882 0.708919 1.79149 0.7784727 0.7560173 2.4068782
-1.260448 -0.052721757 2.204573 -1.7667718 1.2047945 2.3561137 -0.17590392 1.2499622
0.28599215 1.1850718 -1.6265141 2.1680284 1.4366455 1.1562396 2.5264628 -0.024015445
1.3437939 1.853256 -0.5857685 2.254801 2.1632195 0.1326937 1.6096759 1.6622881
-0.8365385 -0.166604 0.47167704 -1.0974443 0.66999555 1.7521211 1.1843507 0.50709814
0.54659724 1.8342592 2.1914418 1.5246205 1.2804968 2.6017177 1.0213878 -0.93737006
00000000: e34a 88be 82fc 813e c32b 9b3f 2746 923f
00000010: 794a 8c3f 280a d23f 302a 7d3f adb7 6f3f
00000020: 77b9 0240 854a 0a40 6706 2540 51e0 cc3f
00000030: 4efb 0a3e b387 e43e c57c 90bf a2ba 8dbe
00000040: 33a0 383f d576 8f3f bf0b 4dbe e477 35bf
00000050: 25bf 433f 3290 5cbf 9bec 693f 68f1 e33f
00000060: f72f 97be fb53 1840 16a0 56bf ef01 0a40
00000070: 7eea 2b3f bdd0 b73f 0f11 013f ec42 f7bd
00000080: 2c73 0ebf e65e 00bf 137b e73f 0952 24be
00000090: 8b22 1a3f 28c8 773f dded 743f 8837 4fbf
000000a0: cf47 2540 9fad 123f f57c e93e 5c00 8c3f
000000b0: daae 493f 6c2e 923e 7bbc bb3f 0f49 e13f
000000c0: 571e cc3f fe8f 6b3e 4c8f b23f 25fe c2bf
000000d0: eab0 1c40 dad6 2840 8b09 2540 89c6 893f
000000e0: a946 2d40 33a9 91bf e3f5 ab3f 80bc f9be
000000f0: e3a2 ac3f f07f 3740 89c9 f6bf 658f 233e
00000100: a926 68bf 5f12 e33f cb1d 863e 2403 753f
00000110: 7176 1e40 715c acbe 94d0 0cbd e7f8 43bf
00000120: 6007 cf3f 6c4f c03f 7ecf 1f40 7606 283f
00000130: 4cb6 f43e ed1e 8fbf d235 b7bf 4eb9 70bf
00000140: 7c0e 11bf a478 1840 da12 06bf 8ce5 c03f
00000150: b086 08bf e020 fc3f f89a 47be 8730 fd3f
00000160: fe00 9b3e 8ffc c93d 34b6 c1bd 3db0 db3e
00000170: c026 0340 fe84 063f a95a 3740 bc21 5d3f
00000180: 20de bb3f 72b6 b53e 32c0 d73e b77b 353f
00000190: 8b4f e53f fd49 473f 5a8a 413f 4b0a 1a40
000001a0: 5c56 a1bf c5f2 57bd b917 0d40 9425 e2bf
000001b0: b536 9a3f 91ca 1640 2820 34be c3fe 9f3f
000001c0: 906d 923e 6fb0 973f 9d31 d0bf fac0 0a40
000001d0: 00e4 b73f a9ff 933f 91b1 2140 0abc c4bc
000001e0: 7001 ac3f 7e37 ed3f edf4 15bf a94e 1040
000001f0: 3072 0a40 dbe0 073e dc09 ce3f dbc5 d43f
00000200: 6327 56bf 3d9a 2abe a77f f13e 0e79 8cbf
00000210: d484 2b3f 8145 e03f ce98 973f 2fd1 013f
00000220: cced 0b3f 01c9 ea3f 9540 0c40 c426 c33f
00000230: 52e7 a33f 8b82 2640 d6bc 823f 7cf7 6fbf

sequential_4/sequential_1/model1/block_10_depthwise_BN/FusedBatchNormV3;sequential_4/sequential_1/model1/block_10_depthwise_BN/FusedBatchNormV3 f4 [144]
0.5978685 1.5475426 1.7652131 2.081081 0.5916555 0.012103736 -0.38129646 -0.8384634
0.901641 3.7514446 3.8927543 2.381753 -0.003113687 2.0555136 -0.21595529 1.4678165
1.1326336 -1.7758694 2.4744391 -0.25895375 1.9583842 5.173891 1.7349927 1.9498936
2.365075 3.9237032 3.1043696 3.9626153 1.0894201 1.667898 -1.3898387 -1.585376
0.5183081 -0.6114303 -0.437693 1.0580174 1.2862499 1.9310473 1.0814363 0.0019175261
3.3519359 1.7045405 1.3627391 4.1503415 1.4779224 3.7222292 1.6793523 0.66628635
2.2482057 0.9366894 -2.2712073 1.4976715 0.045791864 -0.45871612 -2.0326395 -2.029406
4.611776 4.2554083 0.76266646 -0.45440808 1.5211635 2.2588387 -0.67376333 -1.2625371
3.0434895 2.965994 0.6982889 -0.2812146 4.4840403 -0.45723748 1.7548561 0.016148329
-0.8058116 0.38249096 3.6733665 1.4110186 1.0590426 4.8277173 -0.06487979 -0.094664186
-0.056565613 5.7110386 -0.5236884 1.3945311 2.9141066 3.0498784 -0.64540297 2.7621334
0.8295898 1.370387 -1.2414248 -0.6924185 2.3834074 -0.38211742 4.1793313 1.2708163
-1.0248709 1.1644299 2.2148166 -1.6722329 1.5822057 0.12306109 -0.7950812 3.2315426
0.68182987 -0.43866375 3.4803226 -0.0075461864 3.922001 2.131532 2.1554127 3.0353703
-1.3484687 -0.45835543 1.0659516 2.3156285 -0.44043005 3.263551 5.3774524 1.3604699
1.4955124 1.4016678 -0.2238268 1.946287 4.2456884 0.0067902207 1.377399 -0.4361416
2.9767704 1.0940566 -0.781222 2.9520898 2.1202214 0.31841838 -0.5840868 -0.004461527
-1.1403134 2.0419083 1.1550592 -1.1855111 -0.48662078 4.0447173 2.5910435 2.2897806
00000000: e90d 193f e015 c63f 81f2 e13f 6e30 0540
00000010: bc76 173f c04e 463c 4a39 c3be 8aa5 56bf
00000020: f2d1 663f ab17 7040 e322 7940 a46e 1840
00000030: 000f 4cbb 898d 0340 6223 5dbe 69e1 bb3f
00000040: 23fa 903f b04f e3bf 365d 1e40 9695 84be
00000050: 55ac fa3f 8490 a540 3e14 de3f 1d96 f93f
00000060: 645d 1740 f41d 7b40 fead 4640 7d9b 7d40
00000070: 1e72 8b3f af7d d53f 3ce6 b1bf 9aed cabf
00000080: d7af 043f b286 1cbf 4c19 e0be 1d6d 873f
00000090: d6a3 a43f 8f2c f73f 816c 8a3f 8055 fb3a
000000a0: 1e86 5640 622e da3f 3c6e ae3f 99cf 8440
000000b0: 902c bd3f 0139 6e40 04f5 d63f be91 2a3f
000000c0: 9ae2 0f40 e0ca 6f3f 765b 11c0 b3b3 bf3f
000000d0: 4090 3b3d d7dc eabe c416 02c0 cae1 01c0
000000e0: ab93 9340 4e2c 8840 1c3e 433f 2da8 e8be
000000f0: 7cb5 c23f d090 1040 c17b 2cbf d19a a1bf
00000100: 88c8 4240 d8d2 3d40 10c3 323f 5cfb 8fbe
00000110: 427d 8f40 081b eabe 209f e03f 8049 843c
00000120: ab49 4ebf dbd5 c33e 7018 6b40 429c b43f
00000130: b58e 873f a97c 9a40 b2df 84bd 4cdf c1bd
00000140: 58b1 67bd d4c0 b640 7110 06bf ff7f b23f
00000150: b980 3a40 3531 4340 2139 25bf cbc6 3040
00000160: ff5f 543f d768 af3f 02e7 9ebf 5742 31bf
00000170: bf89 1840 e5a4 c3be 15bd 8540 1caa a23f
00000180: f82e 83bf 0a0c 953f 8ebf 0d40 ba0b d6bf
00000190: b785 ca3f 7407 fc3d 718a 4bbf 98d1 4e40
000001a0: 678c 2e3f 8998 e0be 9bbd 5e40 0046 f7bb
000001b0: 1002 7b40 056b 0840 48f2 0940 8243 4240
000001c0: 9f9a acbf 90ad eabe 1a71 883f 4233 1440
000001d0: 0c80 e1be 05de 5040 1714 ac40 e123 ae3f
000001e0: f36c bf3f da69 b33f da32 65be ef1f f93f
000001f0: aedc 8740 8080 de3b 9c4e b03f f44d dfbe
00000200: 6883 3e40 0c0a 8c3f 2afe 47bf 0aef 3c40
00000210: b5b1 0740 bc07 a33e b686 15bf 0032 92bb
00000220: caf5 91bf a0ae 0240 fbd8 933f d4be 97bf
00000230: 5c26 f9be 536e 8140 a8d3 2540 c48b 1240
